{"format": "layers-model", "generatedBy": "keras v2.6.0", "convertedBy": "TensorFlow.js Converter v3.9.0", "modelTopology": {"keras_version": "2.6.0", "backend": "tensorflow", "model_config": {"class_name": "Functional", "config": {"name": "mobilenet_0.25_224", "layers": [{"class_name": "InputLayer", "config": {"batch_input_shape": [null, 224, 224, 3], "dtype": "float32", "sparse": false, "ragged": false, "name": "input_1"}, "name": "input_1", "inbound_nodes": []}, {"class_name": "ZeroPadding2D", "config": {"name": "conv1_pad", "trainable": true, "dtype": "float32", "padding": [[0, 1], [0, 1]], "data_format": "channels_last"}, "name": "conv1_pad", "inbound_nodes": [[["input_1", 0, 0, {}]]]}, {"class_name": "Conv2D", "config": {"name": "conv1", "trainable": true, "dtype": "float32", "filters": 8, "kernel_size": [3, 3], "strides": [2, 2], "padding": "valid", "data_format": "channels_last", "dilation_rate": [1, 1], "groups": 1, "activation": "linear", "use_bias": false, "kernel_initializer": {"class_name": "VarianceScaling", "config": {"scale": 1.0, "mode": "fan_avg", "distribution": "uniform", "seed": null}}, "bias_initializer": {"class_name": "Zeros", "config": {}}, "kernel_regularizer": null, "bias_regularizer": null, "activity_regularizer": null, "kernel_constraint": null, "bias_constraint": null}, "name": "conv1", "inbound_nodes": [[["conv1_pad", 0, 0, {}]]]}, {"class_name": "BatchNormalization", "config": {"name": "conv1_bn", "trainable": true, "dtype": "float32", "axis": [3], "momentum": 0.99, "epsilon": 0.001, "center": true, "scale": true, "beta_initializer": {"class_name": "Zeros", "config": {}}, "gamma_initializer": {"class_name": "Ones", "config": {}}, "moving_mean_initializer": {"class_name": "Zeros", "config": {}}, "moving_variance_initializer": {"class_name": "Ones", "config": {}}, "beta_regularizer": null, "gamma_regularizer": null, "beta_constraint": null, "gamma_constraint": null}, "name": "conv1_bn", "inbound_nodes": [[["conv1", 0, 0, {}]]]}, {"class_name": "ReLU", "config": {"name": "conv1_relu", "trainable": true, "dtype": "float32", "max_value": 6.0, "negative_slope": 0.0, "threshold": 0.0}, "name": "conv1_relu", "inbound_nodes": [[["conv1_bn", 0, 0, {}]]]}, {"class_name": "DepthwiseConv2D", "config": {"name": "conv_dw_1", "trainable": true, "dtype": "float32", "kernel_size": [3, 3], "strides": [1, 1], "padding": "same", "data_format": "channels_last", "dilation_rate": [1, 1], "groups": 1, "activation": "linear", "use_bias": false, "bias_initializer": {"class_name": "Zeros", "config": {}}, "bias_regularizer": null, "activity_regularizer": null, "bias_constraint": null, "depth_multiplier": 1, "depthwise_initializer": {"class_name": "VarianceScaling", "config": {"scale": 1.0, "mode": "fan_avg", "distribution": "uniform", "seed": null}}, "depthwise_regularizer": null, "depthwise_constraint": null}, "name": "conv_dw_1", "inbound_nodes": [[["conv1_relu", 0, 0, {}]]]}, {"class_name": "BatchNormalization", "config": {"name": "conv_dw_1_bn", "trainable": true, "dtype": "float32", "axis": [3], "momentum": 0.99, "epsilon": 0.001, "center": true, "scale": true, "beta_initializer": {"class_name": "Zeros", "config": {}}, "gamma_initializer": {"class_name": "Ones", "config": {}}, "moving_mean_initializer": {"class_name": "Zeros", "config": {}}, "moving_variance_initializer": {"class_name": "Ones", "config": {}}, "beta_regularizer": null, "gamma_regularizer": null, "beta_constraint": null, "gamma_constraint": null}, "name": "conv_dw_1_bn", "inbound_nodes": [[["conv_dw_1", 0, 0, {}]]]}, {"class_name": "ReLU", "config": {"name": "conv_dw_1_relu", "trainable": true, "dtype": "float32", "max_value": 6.0, "negative_slope": 0.0, "threshold": 0.0}, "name": "conv_dw_1_relu", "inbound_nodes": [[["conv_dw_1_bn", 0, 0, {}]]]}, {"class_name": "Conv2D", "config": {"name": "conv_pw_1", "trainable": true, "dtype": "float32", "filters": 16, "kernel_size": [1, 1], "strides": [1, 1], "padding": "same", "data_format": "channels_last", "dilation_rate": [1, 1], "groups": 1, "activation": "linear", "use_bias": false, "kernel_initializer": {"class_name": "VarianceScaling", "config": {"scale": 1.0, "mode": "fan_avg", "distribution": "uniform", "seed": null}}, "bias_initializer": {"class_name": "Zeros", "config": {}}, "kernel_regularizer": null, "bias_regularizer": null, "activity_regularizer": null, "kernel_constraint": null, "bias_constraint": null}, "name": "conv_pw_1", "inbound_nodes": [[["conv_dw_1_relu", 0, 0, {}]]]}, {"class_name": "BatchNormalization", "config": {"name": "conv_pw_1_bn", "trainable": true, "dtype": "float32", "axis": [3], "momentum": 0.99, "epsilon": 0.001, "center": true, "scale": true, "beta_initializer": {"class_name": "Zeros", "config": {}}, "gamma_initializer": {"class_name": "Ones", "config": {}}, "moving_mean_initializer": {"class_name": "Zeros", "config": {}}, "moving_variance_initializer": {"class_name": "Ones", "config": {}}, "beta_regularizer": null, "gamma_regularizer": null, "beta_constraint": null, "gamma_constraint": null}, "name": "conv_pw_1_bn", "inbound_nodes": [[["conv_pw_1", 0, 0, {}]]]}, {"class_name": "ReLU", "config": {"name": "conv_pw_1_relu", "trainable": true, "dtype": "float32", "max_value": 6.0, "negative_slope": 0.0, "threshold": 0.0}, "name": "conv_pw_1_relu", "inbound_nodes": [[["conv_pw_1_bn", 0, 0, {}]]]}, {"class_name": "ZeroPadding2D", "config": {"name": "conv_pad_2", "trainable": true, "dtype": "float32", "padding": [[0, 1], [0, 1]], "data_format": "channels_last"}, "name": "conv_pad_2", "inbound_nodes": [[["conv_pw_1_relu", 0, 0, {}]]]}, {"class_name": "DepthwiseConv2D", "config": {"name": "conv_dw_2", "trainable": true, "dtype": "float32", "kernel_size": [3, 3], "strides": [2, 2], "padding": "valid", "data_format": "channels_last", "dilation_rate": [1, 1], "groups": 1, "activation": "linear", "use_bias": false, "bias_initializer": {"class_name": "Zeros", "config": {}}, "bias_regularizer": null, "activity_regularizer": null, "bias_constraint": null, "depth_multiplier": 1, "depthwise_initializer": {"class_name": "VarianceScaling", "config": {"scale": 1.0, "mode": "fan_avg", "distribution": "uniform", "seed": null}}, "depthwise_regularizer": null, "depthwise_constraint": null}, "name": "conv_dw_2", "inbound_nodes": [[["conv_pad_2", 0, 0, {}]]]}, {"class_name": "BatchNormalization", "config": {"name": "conv_dw_2_bn", "trainable": true, "dtype": "float32", "axis": [3], "momentum": 0.99, "epsilon": 0.001, "center": true, "scale": true, "beta_initializer": {"class_name": "Zeros", "config": {}}, "gamma_initializer": {"class_name": "Ones", "config": {}}, "moving_mean_initializer": {"class_name": "Zeros", "config": {}}, "moving_variance_initializer": {"class_name": "Ones", "config": {}}, "beta_regularizer": null, "gamma_regularizer": null, "beta_constraint": null, "gamma_constraint": null}, "name": "conv_dw_2_bn", "inbound_nodes": [[["conv_dw_2", 0, 0, {}]]]}, {"class_name": "ReLU", "config": {"name": "conv_dw_2_relu", "trainable": true, "dtype": "float32", "max_value": 6.0, "negative_slope": 0.0, "threshold": 0.0}, "name": "conv_dw_2_relu", "inbound_nodes": [[["conv_dw_2_bn", 0, 0, {}]]]}, {"class_name": "Conv2D", "config": {"name": "conv_pw_2", "trainable": true, "dtype": "float32", "filters": 32, "kernel_size": [1, 1], "strides": [1, 1], "padding": "same", "data_format": "channels_last", "dilation_rate": [1, 1], "groups": 1, "activation": "linear", "use_bias": false, "kernel_initializer": {"class_name": "VarianceScaling", "config": {"scale": 1.0, "mode": "fan_avg", "distribution": "uniform", "seed": null}}, "bias_initializer": {"class_name": "Zeros", "config": {}}, "kernel_regularizer": null, "bias_regularizer": null, "activity_regularizer": null, "kernel_constraint": null, "bias_constraint": null}, "name": "conv_pw_2", "inbound_nodes": [[["conv_dw_2_relu", 0, 0, {}]]]}, {"class_name": "BatchNormalization", "config": {"name": "conv_pw_2_bn", "trainable": true, "dtype": "float32", "axis": [3], "momentum": 0.99, "epsilon": 0.001, "center": true, "scale": true, "beta_initializer": {"class_name": "Zeros", "config": {}}, "gamma_initializer": {"class_name": "Ones", "config": {}}, "moving_mean_initializer": {"class_name": "Zeros", "config": {}}, "moving_variance_initializer": {"class_name": "Ones", "config": {}}, "beta_regularizer": null, "gamma_regularizer": null, "beta_constraint": null, "gamma_constraint": null}, "name": "conv_pw_2_bn", "inbound_nodes": [[["conv_pw_2", 0, 0, {}]]]}, {"class_name": "ReLU", "config": {"name": "conv_pw_2_relu", "trainable": true, "dtype": "float32", "max_value": 6.0, "negative_slope": 0.0, "threshold": 0.0}, "name": "conv_pw_2_relu", "inbound_nodes": [[["conv_pw_2_bn", 0, 0, {}]]]}, {"class_name": "DepthwiseConv2D", "config": {"name": "conv_dw_3", "trainable": true, "dtype": "float32", "kernel_size": [3, 3], "strides": [1, 1], "padding": "same", "data_format": "channels_last", "dilation_rate": [1, 1], "groups": 1, "activation": "linear", "use_bias": false, "bias_initializer": {"class_name": "Zeros", "config": {}}, "bias_regularizer": null, "activity_regularizer": null, "bias_constraint": null, "depth_multiplier": 1, "depthwise_initializer": {"class_name": "VarianceScaling", "config": {"scale": 1.0, "mode": "fan_avg", "distribution": "uniform", "seed": null}}, "depthwise_regularizer": null, "depthwise_constraint": null}, "name": "conv_dw_3", "inbound_nodes": [[["conv_pw_2_relu", 0, 0, {}]]]}, {"class_name": "BatchNormalization", "config": {"name": "conv_dw_3_bn", "trainable": true, "dtype": "float32", "axis": [3], "momentum": 0.99, "epsilon": 0.001, "center": true, "scale": true, "beta_initializer": {"class_name": "Zeros", "config": {}}, "gamma_initializer": {"class_name": "Ones", "config": {}}, "moving_mean_initializer": {"class_name": "Zeros", "config": {}}, "moving_variance_initializer": {"class_name": "Ones", "config": {}}, "beta_regularizer": null, "gamma_regularizer": null, "beta_constraint": null, "gamma_constraint": null}, "name": "conv_dw_3_bn", "inbound_nodes": [[["conv_dw_3", 0, 0, {}]]]}, {"class_name": "ReLU", "config": {"name": "conv_dw_3_relu", "trainable": true, "dtype": "float32", "max_value": 6.0, "negative_slope": 0.0, "threshold": 0.0}, "name": "conv_dw_3_relu", "inbound_nodes": [[["conv_dw_3_bn", 0, 0, {}]]]}, {"class_name": "Conv2D", "config": {"name": "conv_pw_3", "trainable": true, "dtype": "float32", "filters": 32, "kernel_size": [1, 1], "strides": [1, 1], "padding": "same", "data_format": "channels_last", "dilation_rate": [1, 1], "groups": 1, "activation": "linear", "use_bias": false, "kernel_initializer": {"class_name": "VarianceScaling", "config": {"scale": 1.0, "mode": "fan_avg", "distribution": "uniform", "seed": null}}, "bias_initializer": {"class_name": "Zeros", "config": {}}, "kernel_regularizer": null, "bias_regularizer": null, "activity_regularizer": null, "kernel_constraint": null, "bias_constraint": null}, "name": "conv_pw_3", "inbound_nodes": [[["conv_dw_3_relu", 0, 0, {}]]]}, {"class_name": "BatchNormalization", "config": {"name": "conv_pw_3_bn", "trainable": true, "dtype": "float32", "axis": [3], "momentum": 0.99, "epsilon": 0.001, "center": true, "scale": true, "beta_initializer": {"class_name": "Zeros", "config": {}}, "gamma_initializer": {"class_name": "Ones", "config": {}}, "moving_mean_initializer": {"class_name": "Zeros", "config": {}}, "moving_variance_initializer": {"class_name": "Ones", "config": {}}, "beta_regularizer": null, "gamma_regularizer": null, "beta_constraint": null, "gamma_constraint": null}, "name": "conv_pw_3_bn", "inbound_nodes": [[["conv_pw_3", 0, 0, {}]]]}, {"class_name": "ReLU", "config": {"name": "conv_pw_3_relu", "trainable": true, "dtype": "float32", "max_value": 6.0, "negative_slope": 0.0, "threshold": 0.0}, "name": "conv_pw_3_relu", "inbound_nodes": [[["conv_pw_3_bn", 0, 0, {}]]]}, {"class_name": "ZeroPadding2D", "config": {"name": "conv_pad_4", "trainable": true, "dtype": "float32", "padding": [[0, 1], [0, 1]], "data_format": "channels_last"}, "name": "conv_pad_4", "inbound_nodes": [[["conv_pw_3_relu", 0, 0, {}]]]}, {"class_name": "DepthwiseConv2D", "config": {"name": "conv_dw_4", "trainable": true, "dtype": "float32", "kernel_size": [3, 3], "strides": [2, 2], "padding": "valid", "data_format": "channels_last", "dilation_rate": [1, 1], "groups": 1, "activation": "linear", "use_bias": false, "bias_initializer": {"class_name": "Zeros", "config": {}}, "bias_regularizer": null, "activity_regularizer": null, "bias_constraint": null, "depth_multiplier": 1, "depthwise_initializer": {"class_name": "VarianceScaling", "config": {"scale": 1.0, "mode": "fan_avg", "distribution": "uniform", "seed": null}}, "depthwise_regularizer": null, "depthwise_constraint": null}, "name": "conv_dw_4", "inbound_nodes": [[["conv_pad_4", 0, 0, {}]]]}, {"class_name": "BatchNormalization", "config": {"name": "conv_dw_4_bn", "trainable": true, "dtype": "float32", "axis": [3], "momentum": 0.99, "epsilon": 0.001, "center": true, "scale": true, "beta_initializer": {"class_name": "Zeros", "config": {}}, "gamma_initializer": {"class_name": "Ones", "config": {}}, "moving_mean_initializer": {"class_name": "Zeros", "config": {}}, "moving_variance_initializer": {"class_name": "Ones", "config": {}}, "beta_regularizer": null, "gamma_regularizer": null, "beta_constraint": null, "gamma_constraint": null}, "name": "conv_dw_4_bn", "inbound_nodes": [[["conv_dw_4", 0, 0, {}]]]}, {"class_name": "ReLU", "config": {"name": "conv_dw_4_relu", "trainable": true, "dtype": "float32", "max_value": 6.0, "negative_slope": 0.0, "threshold": 0.0}, "name": "conv_dw_4_relu", "inbound_nodes": [[["conv_dw_4_bn", 0, 0, {}]]]}, {"class_name": "Conv2D", "config": {"name": "conv_pw_4", "trainable": true, "dtype": "float32", "filters": 64, "kernel_size": [1, 1], "strides": [1, 1], "padding": "same", "data_format": "channels_last", "dilation_rate": [1, 1], "groups": 1, "activation": "linear", "use_bias": false, "kernel_initializer": {"class_name": "VarianceScaling", "config": {"scale": 1.0, "mode": "fan_avg", "distribution": "uniform", "seed": null}}, "bias_initializer": {"class_name": "Zeros", "config": {}}, "kernel_regularizer": null, "bias_regularizer": null, "activity_regularizer": null, "kernel_constraint": null, "bias_constraint": null}, "name": "conv_pw_4", "inbound_nodes": [[["conv_dw_4_relu", 0, 0, {}]]]}, {"class_name": "BatchNormalization", "config": {"name": "conv_pw_4_bn", "trainable": true, "dtype": "float32", "axis": [3], "momentum": 0.99, "epsilon": 0.001, "center": true, "scale": true, "beta_initializer": {"class_name": "Zeros", "config": {}}, "gamma_initializer": {"class_name": "Ones", "config": {}}, "moving_mean_initializer": {"class_name": "Zeros", "config": {}}, "moving_variance_initializer": {"class_name": "Ones", "config": {}}, "beta_regularizer": null, "gamma_regularizer": null, "beta_constraint": null, "gamma_constraint": null}, "name": "conv_pw_4_bn", "inbound_nodes": [[["conv_pw_4", 0, 0, {}]]]}, {"class_name": "ReLU", "config": {"name": "conv_pw_4_relu", "trainable": true, "dtype": "float32", "max_value": 6.0, "negative_slope": 0.0, "threshold": 0.0}, "name": "conv_pw_4_relu", "inbound_nodes": [[["conv_pw_4_bn", 0, 0, {}]]]}, {"class_name": "DepthwiseConv2D", "config": {"name": "conv_dw_5", "trainable": true, "dtype": "float32", "kernel_size": [3, 3], "strides": [1, 1], "padding": "same", "data_format": "channels_last", "dilation_rate": [1, 1], "groups": 1, "activation": "linear", "use_bias": false, "bias_initializer": {"class_name": "Zeros", "config": {}}, "bias_regularizer": null, "activity_regularizer": null, "bias_constraint": null, "depth_multiplier": 1, "depthwise_initializer": {"class_name": "VarianceScaling", "config": {"scale": 1.0, "mode": "fan_avg", "distribution": "uniform", "seed": null}}, "depthwise_regularizer": null, "depthwise_constraint": null}, "name": "conv_dw_5", "inbound_nodes": [[["conv_pw_4_relu", 0, 0, {}]]]}, {"class_name": "BatchNormalization", "config": {"name": "conv_dw_5_bn", "trainable": true, "dtype": "float32", "axis": [3], "momentum": 0.99, "epsilon": 0.001, "center": true, "scale": true, "beta_initializer": {"class_name": "Zeros", "config": {}}, "gamma_initializer": {"class_name": "Ones", "config": {}}, "moving_mean_initializer": {"class_name": "Zeros", "config": {}}, "moving_variance_initializer": {"class_name": "Ones", "config": {}}, "beta_regularizer": null, "gamma_regularizer": null, "beta_constraint": null, "gamma_constraint": null}, "name": "conv_dw_5_bn", "inbound_nodes": [[["conv_dw_5", 0, 0, {}]]]}, {"class_name": "ReLU", "config": {"name": "conv_dw_5_relu", "trainable": true, "dtype": "float32", "max_value": 6.0, "negative_slope": 0.0, "threshold": 0.0}, "name": "conv_dw_5_relu", "inbound_nodes": [[["conv_dw_5_bn", 0, 0, {}]]]}, {"class_name": "Conv2D", "config": {"name": "conv_pw_5", "trainable": true, "dtype": "float32", "filters": 64, "kernel_size": [1, 1], "strides": [1, 1], "padding": "same", "data_format": "channels_last", "dilation_rate": [1, 1], "groups": 1, "activation": "linear", "use_bias": false, "kernel_initializer": {"class_name": "VarianceScaling", "config": {"scale": 1.0, "mode": "fan_avg", "distribution": "uniform", "seed": null}}, "bias_initializer": {"class_name": "Zeros", "config": {}}, "kernel_regularizer": null, "bias_regularizer": null, "activity_regularizer": null, "kernel_constraint": null, "bias_constraint": null}, "name": "conv_pw_5", "inbound_nodes": [[["conv_dw_5_relu", 0, 0, {}]]]}, {"class_name": "BatchNormalization", "config": {"name": "conv_pw_5_bn", "trainable": true, "dtype": "float32", "axis": [3], "momentum": 0.99, "epsilon": 0.001, "center": true, "scale": true, "beta_initializer": {"class_name": "Zeros", "config": {}}, "gamma_initializer": {"class_name": "Ones", "config": {}}, "moving_mean_initializer": {"class_name": "Zeros", "config": {}}, "moving_variance_initializer": {"class_name": "Ones", "config": {}}, "beta_regularizer": null, "gamma_regularizer": null, "beta_constraint": null, "gamma_constraint": null}, "name": "conv_pw_5_bn", "inbound_nodes": [[["conv_pw_5", 0, 0, {}]]]}, {"class_name": "ReLU", "config": {"name": "conv_pw_5_relu", "trainable": true, "dtype": "float32", "max_value": 6.0, "negative_slope": 0.0, "threshold": 0.0}, "name": "conv_pw_5_relu", "inbound_nodes": [[["conv_pw_5_bn", 0, 0, {}]]]}, {"class_name": "ZeroPadding2D", "config": {"name": "conv_pad_6", "trainable": true, "dtype": "float32", "padding": [[0, 1], [0, 1]], "data_format": "channels_last"}, "name": "conv_pad_6", "inbound_nodes": [[["conv_pw_5_relu", 0, 0, {}]]]}, {"class_name": "DepthwiseConv2D", "config": {"name": "conv_dw_6", "trainable": true, "dtype": "float32", "kernel_size": [3, 3], "strides": [2, 2], "padding": "valid", "data_format": "channels_last", "dilation_rate": [1, 1], "groups": 1, "activation": "linear", "use_bias": false, "bias_initializer": {"class_name": "Zeros", "config": {}}, "bias_regularizer": null, "activity_regularizer": null, "bias_constraint": null, "depth_multiplier": 1, "depthwise_initializer": {"class_name": "VarianceScaling", "config": {"scale": 1.0, "mode": "fan_avg", "distribution": "uniform", "seed": null}}, "depthwise_regularizer": null, "depthwise_constraint": null}, "name": "conv_dw_6", "inbound_nodes": [[["conv_pad_6", 0, 0, {}]]]}, {"class_name": "BatchNormalization", "config": {"name": "conv_dw_6_bn", "trainable": true, "dtype": "float32", "axis": [3], "momentum": 0.99, "epsilon": 0.001, "center": true, "scale": true, "beta_initializer": {"class_name": "Zeros", "config": {}}, "gamma_initializer": {"class_name": "Ones", "config": {}}, "moving_mean_initializer": {"class_name": "Zeros", "config": {}}, "moving_variance_initializer": {"class_name": "Ones", "config": {}}, "beta_regularizer": null, "gamma_regularizer": null, "beta_constraint": null, "gamma_constraint": null}, "name": "conv_dw_6_bn", "inbound_nodes": [[["conv_dw_6", 0, 0, {}]]]}, {"class_name": "ReLU", "config": {"name": "conv_dw_6_relu", "trainable": true, "dtype": "float32", "max_value": 6.0, "negative_slope": 0.0, "threshold": 0.0}, "name": "conv_dw_6_relu", "inbound_nodes": [[["conv_dw_6_bn", 0, 0, {}]]]}, {"class_name": "Conv2D", "config": {"name": "conv_pw_6", "trainable": true, "dtype": "float32", "filters": 128, "kernel_size": [1, 1], "strides": [1, 1], "padding": "same", "data_format": "channels_last", "dilation_rate": [1, 1], "groups": 1, "activation": "linear", "use_bias": false, "kernel_initializer": {"class_name": "VarianceScaling", "config": {"scale": 1.0, "mode": "fan_avg", "distribution": "uniform", "seed": null}}, "bias_initializer": {"class_name": "Zeros", "config": {}}, "kernel_regularizer": null, "bias_regularizer": null, "activity_regularizer": null, "kernel_constraint": null, "bias_constraint": null}, "name": "conv_pw_6", "inbound_nodes": [[["conv_dw_6_relu", 0, 0, {}]]]}, {"class_name": "BatchNormalization", "config": {"name": "conv_pw_6_bn", "trainable": true, "dtype": "float32", "axis": [3], "momentum": 0.99, "epsilon": 0.001, "center": true, "scale": true, "beta_initializer": {"class_name": "Zeros", "config": {}}, "gamma_initializer": {"class_name": "Ones", "config": {}}, "moving_mean_initializer": {"class_name": "Zeros", "config": {}}, "moving_variance_initializer": {"class_name": "Ones", "config": {}}, "beta_regularizer": null, "gamma_regularizer": null, "beta_constraint": null, "gamma_constraint": null}, "name": "conv_pw_6_bn", "inbound_nodes": [[["conv_pw_6", 0, 0, {}]]]}, {"class_name": "ReLU", "config": {"name": "conv_pw_6_relu", "trainable": true, "dtype": "float32", "max_value": 6.0, "negative_slope": 0.0, "threshold": 0.0}, "name": "conv_pw_6_relu", "inbound_nodes": [[["conv_pw_6_bn", 0, 0, {}]]]}, {"class_name": "DepthwiseConv2D", "config": {"name": "conv_dw_7", "trainable": true, "dtype": "float32", "kernel_size": [3, 3], "strides": [1, 1], "padding": "same", "data_format": "channels_last", "dilation_rate": [1, 1], "groups": 1, "activation": "linear", "use_bias": false, "bias_initializer": {"class_name": "Zeros", "config": {}}, "bias_regularizer": null, "activity_regularizer": null, "bias_constraint": null, "depth_multiplier": 1, "depthwise_initializer": {"class_name": "VarianceScaling", "config": {"scale": 1.0, "mode": "fan_avg", "distribution": "uniform", "seed": null}}, "depthwise_regularizer": null, "depthwise_constraint": null}, "name": "conv_dw_7", "inbound_nodes": [[["conv_pw_6_relu", 0, 0, {}]]]}, {"class_name": "BatchNormalization", "config": {"name": "conv_dw_7_bn", "trainable": true, "dtype": "float32", "axis": [3], "momentum": 0.99, "epsilon": 0.001, "center": true, "scale": true, "beta_initializer": {"class_name": "Zeros", "config": {}}, "gamma_initializer": {"class_name": "Ones", "config": {}}, "moving_mean_initializer": {"class_name": "Zeros", "config": {}}, "moving_variance_initializer": {"class_name": "Ones", "config": {}}, "beta_regularizer": null, "gamma_regularizer": null, "beta_constraint": null, "gamma_constraint": null}, "name": "conv_dw_7_bn", "inbound_nodes": [[["conv_dw_7", 0, 0, {}]]]}, {"class_name": "ReLU", "config": {"name": "conv_dw_7_relu", "trainable": true, "dtype": "float32", "max_value": 6.0, "negative_slope": 0.0, "threshold": 0.0}, "name": "conv_dw_7_relu", "inbound_nodes": [[["conv_dw_7_bn", 0, 0, {}]]]}, {"class_name": "Conv2D", "config": {"name": "conv_pw_7", "trainable": true, "dtype": "float32", "filters": 128, "kernel_size": [1, 1], "strides": [1, 1], "padding": "same", "data_format": "channels_last", "dilation_rate": [1, 1], "groups": 1, "activation": "linear", "use_bias": false, "kernel_initializer": {"class_name": "VarianceScaling", "config": {"scale": 1.0, "mode": "fan_avg", "distribution": "uniform", "seed": null}}, "bias_initializer": {"class_name": "Zeros", "config": {}}, "kernel_regularizer": null, "bias_regularizer": null, "activity_regularizer": null, "kernel_constraint": null, "bias_constraint": null}, "name": "conv_pw_7", "inbound_nodes": [[["conv_dw_7_relu", 0, 0, {}]]]}, {"class_name": "BatchNormalization", "config": {"name": "conv_pw_7_bn", "trainable": true, "dtype": "float32", "axis": [3], "momentum": 0.99, "epsilon": 0.001, "center": true, "scale": true, "beta_initializer": {"class_name": "Zeros", "config": {}}, "gamma_initializer": {"class_name": "Ones", "config": {}}, "moving_mean_initializer": {"class_name": "Zeros", "config": {}}, "moving_variance_initializer": {"class_name": "Ones", "config": {}}, "beta_regularizer": null, "gamma_regularizer": null, "beta_constraint": null, "gamma_constraint": null}, "name": "conv_pw_7_bn", "inbound_nodes": [[["conv_pw_7", 0, 0, {}]]]}, {"class_name": "ReLU", "config": {"name": "conv_pw_7_relu", "trainable": true, "dtype": "float32", "max_value": 6.0, "negative_slope": 0.0, "threshold": 0.0}, "name": "conv_pw_7_relu", "inbound_nodes": [[["conv_pw_7_bn", 0, 0, {}]]]}, {"class_name": "DepthwiseConv2D", "config": {"name": "conv_dw_8", "trainable": true, "dtype": "float32", "kernel_size": [3, 3], "strides": [1, 1], "padding": "same", "data_format": "channels_last", "dilation_rate": [1, 1], "groups": 1, "activation": "linear", "use_bias": false, "bias_initializer": {"class_name": "Zeros", "config": {}}, "bias_regularizer": null, "activity_regularizer": null, "bias_constraint": null, "depth_multiplier": 1, "depthwise_initializer": {"class_name": "VarianceScaling", "config": {"scale": 1.0, "mode": "fan_avg", "distribution": "uniform", "seed": null}}, "depthwise_regularizer": null, "depthwise_constraint": null}, "name": "conv_dw_8", "inbound_nodes": [[["conv_pw_7_relu", 0, 0, {}]]]}, {"class_name": "BatchNormalization", "config": {"name": "conv_dw_8_bn", "trainable": true, "dtype": "float32", "axis": [3], "momentum": 0.99, "epsilon": 0.001, "center": true, "scale": true, "beta_initializer": {"class_name": "Zeros", "config": {}}, "gamma_initializer": {"class_name": "Ones", "config": {}}, "moving_mean_initializer": {"class_name": "Zeros", "config": {}}, "moving_variance_initializer": {"class_name": "Ones", "config": {}}, "beta_regularizer": null, "gamma_regularizer": null, "beta_constraint": null, "gamma_constraint": null}, "name": "conv_dw_8_bn", "inbound_nodes": [[["conv_dw_8", 0, 0, {}]]]}, {"class_name": "ReLU", "config": {"name": "conv_dw_8_relu", "trainable": true, "dtype": "float32", "max_value": 6.0, "negative_slope": 0.0, "threshold": 0.0}, "name": "conv_dw_8_relu", "inbound_nodes": [[["conv_dw_8_bn", 0, 0, {}]]]}, {"class_name": "Conv2D", "config": {"name": "conv_pw_8", "trainable": true, "dtype": "float32", "filters": 128, "kernel_size": [1, 1], "strides": [1, 1], "padding": "same", "data_format": "channels_last", "dilation_rate": [1, 1], "groups": 1, "activation": "linear", "use_bias": false, "kernel_initializer": {"class_name": "VarianceScaling", "config": {"scale": 1.0, "mode": "fan_avg", "distribution": "uniform", "seed": null}}, "bias_initializer": {"class_name": "Zeros", "config": {}}, "kernel_regularizer": null, "bias_regularizer": null, "activity_regularizer": null, "kernel_constraint": null, "bias_constraint": null}, "name": "conv_pw_8", "inbound_nodes": [[["conv_dw_8_relu", 0, 0, {}]]]}, {"class_name": "BatchNormalization", "config": {"name": "conv_pw_8_bn", "trainable": true, "dtype": "float32", "axis": [3], "momentum": 0.99, "epsilon": 0.001, "center": true, "scale": true, "beta_initializer": {"class_name": "Zeros", "config": {}}, "gamma_initializer": {"class_name": "Ones", "config": {}}, "moving_mean_initializer": {"class_name": "Zeros", "config": {}}, "moving_variance_initializer": {"class_name": "Ones", "config": {}}, "beta_regularizer": null, "gamma_regularizer": null, "beta_constraint": null, "gamma_constraint": null}, "name": "conv_pw_8_bn", "inbound_nodes": [[["conv_pw_8", 0, 0, {}]]]}, {"class_name": "ReLU", "config": {"name": "conv_pw_8_relu", "trainable": true, "dtype": "float32", "max_value": 6.0, "negative_slope": 0.0, "threshold": 0.0}, "name": "conv_pw_8_relu", "inbound_nodes": [[["conv_pw_8_bn", 0, 0, {}]]]}, {"class_name": "DepthwiseConv2D", "config": {"name": "conv_dw_9", "trainable": true, "dtype": "float32", "kernel_size": [3, 3], "strides": [1, 1], "padding": "same", "data_format": "channels_last", "dilation_rate": [1, 1], "groups": 1, "activation": "linear", "use_bias": false, "bias_initializer": {"class_name": "Zeros", "config": {}}, "bias_regularizer": null, "activity_regularizer": null, "bias_constraint": null, "depth_multiplier": 1, "depthwise_initializer": {"class_name": "VarianceScaling", "config": {"scale": 1.0, "mode": "fan_avg", "distribution": "uniform", "seed": null}}, "depthwise_regularizer": null, "depthwise_constraint": null}, "name": "conv_dw_9", "inbound_nodes": [[["conv_pw_8_relu", 0, 0, {}]]]}, {"class_name": "BatchNormalization", "config": {"name": "conv_dw_9_bn", "trainable": true, "dtype": "float32", "axis": [3], "momentum": 0.99, "epsilon": 0.001, "center": true, "scale": true, "beta_initializer": {"class_name": "Zeros", "config": {}}, "gamma_initializer": {"class_name": "Ones", "config": {}}, "moving_mean_initializer": {"class_name": "Zeros", "config": {}}, "moving_variance_initializer": {"class_name": "Ones", "config": {}}, "beta_regularizer": null, "gamma_regularizer": null, "beta_constraint": null, "gamma_constraint": null}, "name": "conv_dw_9_bn", "inbound_nodes": [[["conv_dw_9", 0, 0, {}]]]}, {"class_name": "ReLU", "config": {"name": "conv_dw_9_relu", "trainable": true, "dtype": "float32", "max_value": 6.0, "negative_slope": 0.0, "threshold": 0.0}, "name": "conv_dw_9_relu", "inbound_nodes": [[["conv_dw_9_bn", 0, 0, {}]]]}, {"class_name": "Conv2D", "config": {"name": "conv_pw_9", "trainable": true, "dtype": "float32", "filters": 128, "kernel_size": [1, 1], "strides": [1, 1], "padding": "same", "data_format": "channels_last", "dilation_rate": [1, 1], "groups": 1, "activation": "linear", "use_bias": false, "kernel_initializer": {"class_name": "VarianceScaling", "config": {"scale": 1.0, "mode": "fan_avg", "distribution": "uniform", "seed": null}}, "bias_initializer": {"class_name": "Zeros", "config": {}}, "kernel_regularizer": null, "bias_regularizer": null, "activity_regularizer": null, "kernel_constraint": null, "bias_constraint": null}, "name": "conv_pw_9", "inbound_nodes": [[["conv_dw_9_relu", 0, 0, {}]]]}, {"class_name": "BatchNormalization", "config": {"name": "conv_pw_9_bn", "trainable": true, "dtype": "float32", "axis": [3], "momentum": 0.99, "epsilon": 0.001, "center": true, "scale": true, "beta_initializer": {"class_name": "Zeros", "config": {}}, "gamma_initializer": {"class_name": "Ones", "config": {}}, "moving_mean_initializer": {"class_name": "Zeros", "config": {}}, "moving_variance_initializer": {"class_name": "Ones", "config": {}}, "beta_regularizer": null, "gamma_regularizer": null, "beta_constraint": null, "gamma_constraint": null}, "name": "conv_pw_9_bn", "inbound_nodes": [[["conv_pw_9", 0, 0, {}]]]}, {"class_name": "ReLU", "config": {"name": "conv_pw_9_relu", "trainable": true, "dtype": "float32", "max_value": 6.0, "negative_slope": 0.0, "threshold": 0.0}, "name": "conv_pw_9_relu", "inbound_nodes": [[["conv_pw_9_bn", 0, 0, {}]]]}, {"class_name": "DepthwiseConv2D", "config": {"name": "conv_dw_10", "trainable": true, "dtype": "float32", "kernel_size": [3, 3], "strides": [1, 1], "padding": "same", "data_format": "channels_last", "dilation_rate": [1, 1], "groups": 1, "activation": "linear", "use_bias": false, "bias_initializer": {"class_name": "Zeros", "config": {}}, "bias_regularizer": null, "activity_regularizer": null, "bias_constraint": null, "depth_multiplier": 1, "depthwise_initializer": {"class_name": "VarianceScaling", "config": {"scale": 1.0, "mode": "fan_avg", "distribution": "uniform", "seed": null}}, "depthwise_regularizer": null, "depthwise_constraint": null}, "name": "conv_dw_10", "inbound_nodes": [[["conv_pw_9_relu", 0, 0, {}]]]}, {"class_name": "BatchNormalization", "config": {"name": "conv_dw_10_bn", "trainable": true, "dtype": "float32", "axis": [3], "momentum": 0.99, "epsilon": 0.001, "center": true, "scale": true, "beta_initializer": {"class_name": "Zeros", "config": {}}, "gamma_initializer": {"class_name": "Ones", "config": {}}, "moving_mean_initializer": {"class_name": "Zeros", "config": {}}, "moving_variance_initializer": {"class_name": "Ones", "config": {}}, "beta_regularizer": null, "gamma_regularizer": null, "beta_constraint": null, "gamma_constraint": null}, "name": "conv_dw_10_bn", "inbound_nodes": [[["conv_dw_10", 0, 0, {}]]]}, {"class_name": "ReLU", "config": {"name": "conv_dw_10_relu", "trainable": true, "dtype": "float32", "max_value": 6.0, "negative_slope": 0.0, "threshold": 0.0}, "name": "conv_dw_10_relu", "inbound_nodes": [[["conv_dw_10_bn", 0, 0, {}]]]}, {"class_name": "Conv2D", "config": {"name": "conv_pw_10", "trainable": true, "dtype": "float32", "filters": 128, "kernel_size": [1, 1], "strides": [1, 1], "padding": "same", "data_format": "channels_last", "dilation_rate": [1, 1], "groups": 1, "activation": "linear", "use_bias": false, "kernel_initializer": {"class_name": "VarianceScaling", "config": {"scale": 1.0, "mode": "fan_avg", "distribution": "uniform", "seed": null}}, "bias_initializer": {"class_name": "Zeros", "config": {}}, "kernel_regularizer": null, "bias_regularizer": null, "activity_regularizer": null, "kernel_constraint": null, "bias_constraint": null}, "name": "conv_pw_10", "inbound_nodes": [[["conv_dw_10_relu", 0, 0, {}]]]}, {"class_name": "BatchNormalization", "config": {"name": "conv_pw_10_bn", "trainable": true, "dtype": "float32", "axis": [3], "momentum": 0.99, "epsilon": 0.001, "center": true, "scale": true, "beta_initializer": {"class_name": "Zeros", "config": {}}, "gamma_initializer": {"class_name": "Ones", "config": {}}, "moving_mean_initializer": {"class_name": "Zeros", "config": {}}, "moving_variance_initializer": {"class_name": "Ones", "config": {}}, "beta_regularizer": null, "gamma_regularizer": null, "beta_constraint": null, "gamma_constraint": null}, "name": "conv_pw_10_bn", "inbound_nodes": [[["conv_pw_10", 0, 0, {}]]]}, {"class_name": "ReLU", "config": {"name": "conv_pw_10_relu", "trainable": true, "dtype": "float32", "max_value": 6.0, "negative_slope": 0.0, "threshold": 0.0}, "name": "conv_pw_10_relu", "inbound_nodes": [[["conv_pw_10_bn", 0, 0, {}]]]}, {"class_name": "DepthwiseConv2D", "config": {"name": "conv_dw_11", "trainable": true, "dtype": "float32", "kernel_size": [3, 3], "strides": [1, 1], "padding": "same", "data_format": "channels_last", "dilation_rate": [1, 1], "groups": 1, "activation": "linear", "use_bias": false, "bias_initializer": {"class_name": "Zeros", "config": {}}, "bias_regularizer": null, "activity_regularizer": null, "bias_constraint": null, "depth_multiplier": 1, "depthwise_initializer": {"class_name": "VarianceScaling", "config": {"scale": 1.0, "mode": "fan_avg", "distribution": "uniform", "seed": null}}, "depthwise_regularizer": null, "depthwise_constraint": null}, "name": "conv_dw_11", "inbound_nodes": [[["conv_pw_10_relu", 0, 0, {}]]]}, {"class_name": "BatchNormalization", "config": {"name": "conv_dw_11_bn", "trainable": true, "dtype": "float32", "axis": [3], "momentum": 0.99, "epsilon": 0.001, "center": true, "scale": true, "beta_initializer": {"class_name": "Zeros", "config": {}}, "gamma_initializer": {"class_name": "Ones", "config": {}}, "moving_mean_initializer": {"class_name": "Zeros", "config": {}}, "moving_variance_initializer": {"class_name": "Ones", "config": {}}, "beta_regularizer": null, "gamma_regularizer": null, "beta_constraint": null, "gamma_constraint": null}, "name": "conv_dw_11_bn", "inbound_nodes": [[["conv_dw_11", 0, 0, {}]]]}, {"class_name": "ReLU", "config": {"name": "conv_dw_11_relu", "trainable": true, "dtype": "float32", "max_value": 6.0, "negative_slope": 0.0, "threshold": 0.0}, "name": "conv_dw_11_relu", "inbound_nodes": [[["conv_dw_11_bn", 0, 0, {}]]]}, {"class_name": "Conv2D", "config": {"name": "conv_pw_11", "trainable": true, "dtype": "float32", "filters": 128, "kernel_size": [1, 1], "strides": [1, 1], "padding": "same", "data_format": "channels_last", "dilation_rate": [1, 1], "groups": 1, "activation": "linear", "use_bias": false, "kernel_initializer": {"class_name": "VarianceScaling", "config": {"scale": 1.0, "mode": "fan_avg", "distribution": "uniform", "seed": null}}, "bias_initializer": {"class_name": "Zeros", "config": {}}, "kernel_regularizer": null, "bias_regularizer": null, "activity_regularizer": null, "kernel_constraint": null, "bias_constraint": null}, "name": "conv_pw_11", "inbound_nodes": [[["conv_dw_11_relu", 0, 0, {}]]]}, {"class_name": "BatchNormalization", "config": {"name": "conv_pw_11_bn", "trainable": true, "dtype": "float32", "axis": [3], "momentum": 0.99, "epsilon": 0.001, "center": true, "scale": true, "beta_initializer": {"class_name": "Zeros", "config": {}}, "gamma_initializer": {"class_name": "Ones", "config": {}}, "moving_mean_initializer": {"class_name": "Zeros", "config": {}}, "moving_variance_initializer": {"class_name": "Ones", "config": {}}, "beta_regularizer": null, "gamma_regularizer": null, "beta_constraint": null, "gamma_constraint": null}, "name": "conv_pw_11_bn", "inbound_nodes": [[["conv_pw_11", 0, 0, {}]]]}, {"class_name": "ReLU", "config": {"name": "conv_pw_11_relu", "trainable": true, "dtype": "float32", "max_value": 6.0, "negative_slope": 0.0, "threshold": 0.0}, "name": "conv_pw_11_relu", "inbound_nodes": [[["conv_pw_11_bn", 0, 0, {}]]]}, {"class_name": "ZeroPadding2D", "config": {"name": "conv_pad_12", "trainable": true, "dtype": "float32", "padding": [[0, 1], [0, 1]], "data_format": "channels_last"}, "name": "conv_pad_12", "inbound_nodes": [[["conv_pw_11_relu", 0, 0, {}]]]}, {"class_name": "DepthwiseConv2D", "config": {"name": "conv_dw_12", "trainable": true, "dtype": "float32", "kernel_size": [3, 3], "strides": [2, 2], "padding": "valid", "data_format": "channels_last", "dilation_rate": [1, 1], "groups": 1, "activation": "linear", "use_bias": false, "bias_initializer": {"class_name": "Zeros", "config": {}}, "bias_regularizer": null, "activity_regularizer": null, "bias_constraint": null, "depth_multiplier": 1, "depthwise_initializer": {"class_name": "VarianceScaling", "config": {"scale": 1.0, "mode": "fan_avg", "distribution": "uniform", "seed": null}}, "depthwise_regularizer": null, "depthwise_constraint": null}, "name": "conv_dw_12", "inbound_nodes": [[["conv_pad_12", 0, 0, {}]]]}, {"class_name": "BatchNormalization", "config": {"name": "conv_dw_12_bn", "trainable": true, "dtype": "float32", "axis": [3], "momentum": 0.99, "epsilon": 0.001, "center": true, "scale": true, "beta_initializer": {"class_name": "Zeros", "config": {}}, "gamma_initializer": {"class_name": "Ones", "config": {}}, "moving_mean_initializer": {"class_name": "Zeros", "config": {}}, "moving_variance_initializer": {"class_name": "Ones", "config": {}}, "beta_regularizer": null, "gamma_regularizer": null, "beta_constraint": null, "gamma_constraint": null}, "name": "conv_dw_12_bn", "inbound_nodes": [[["conv_dw_12", 0, 0, {}]]]}, {"class_name": "ReLU", "config": {"name": "conv_dw_12_relu", "trainable": true, "dtype": "float32", "max_value": 6.0, "negative_slope": 0.0, "threshold": 0.0}, "name": "conv_dw_12_relu", "inbound_nodes": [[["conv_dw_12_bn", 0, 0, {}]]]}, {"class_name": "Conv2D", "config": {"name": "conv_pw_12", "trainable": true, "dtype": "float32", "filters": 256, "kernel_size": [1, 1], "strides": [1, 1], "padding": "same", "data_format": "channels_last", "dilation_rate": [1, 1], "groups": 1, "activation": "linear", "use_bias": false, "kernel_initializer": {"class_name": "VarianceScaling", "config": {"scale": 1.0, "mode": "fan_avg", "distribution": "uniform", "seed": null}}, "bias_initializer": {"class_name": "Zeros", "config": {}}, "kernel_regularizer": null, "bias_regularizer": null, "activity_regularizer": null, "kernel_constraint": null, "bias_constraint": null}, "name": "conv_pw_12", "inbound_nodes": [[["conv_dw_12_relu", 0, 0, {}]]]}, {"class_name": "BatchNormalization", "config": {"name": "conv_pw_12_bn", "trainable": true, "dtype": "float32", "axis": [3], "momentum": 0.99, "epsilon": 0.001, "center": true, "scale": true, "beta_initializer": {"class_name": "Zeros", "config": {}}, "gamma_initializer": {"class_name": "Ones", "config": {}}, "moving_mean_initializer": {"class_name": "Zeros", "config": {}}, "moving_variance_initializer": {"class_name": "Ones", "config": {}}, "beta_regularizer": null, "gamma_regularizer": null, "beta_constraint": null, "gamma_constraint": null}, "name": "conv_pw_12_bn", "inbound_nodes": [[["conv_pw_12", 0, 0, {}]]]}, {"class_name": "ReLU", "config": {"name": "conv_pw_12_relu", "trainable": true, "dtype": "float32", "max_value": 6.0, "negative_slope": 0.0, "threshold": 0.0}, "name": "conv_pw_12_relu", "inbound_nodes": [[["conv_pw_12_bn", 0, 0, {}]]]}, {"class_name": "DepthwiseConv2D", "config": {"name": "conv_dw_13", "trainable": true, "dtype": "float32", "kernel_size": [3, 3], "strides": [1, 1], "padding": "same", "data_format": "channels_last", "dilation_rate": [1, 1], "groups": 1, "activation": "linear", "use_bias": false, "bias_initializer": {"class_name": "Zeros", "config": {}}, "bias_regularizer": null, "activity_regularizer": null, "bias_constraint": null, "depth_multiplier": 1, "depthwise_initializer": {"class_name": "VarianceScaling", "config": {"scale": 1.0, "mode": "fan_avg", "distribution": "uniform", "seed": null}}, "depthwise_regularizer": null, "depthwise_constraint": null}, "name": "conv_dw_13", "inbound_nodes": [[["conv_pw_12_relu", 0, 0, {}]]]}, {"class_name": "BatchNormalization", "config": {"name": "conv_dw_13_bn", "trainable": true, "dtype": "float32", "axis": [3], "momentum": 0.99, "epsilon": 0.001, "center": true, "scale": true, "beta_initializer": {"class_name": "Zeros", "config": {}}, "gamma_initializer": {"class_name": "Ones", "config": {}}, "moving_mean_initializer": {"class_name": "Zeros", "config": {}}, "moving_variance_initializer": {"class_name": "Ones", "config": {}}, "beta_regularizer": null, "gamma_regularizer": null, "beta_constraint": null, "gamma_constraint": null}, "name": "conv_dw_13_bn", "inbound_nodes": [[["conv_dw_13", 0, 0, {}]]]}, {"class_name": "ReLU", "config": {"name": "conv_dw_13_relu", "trainable": true, "dtype": "float32", "max_value": 6.0, "negative_slope": 0.0, "threshold": 0.0}, "name": "conv_dw_13_relu", "inbound_nodes": [[["conv_dw_13_bn", 0, 0, {}]]]}, {"class_name": "Conv2D", "config": {"name": "conv_pw_13", "trainable": true, "dtype": "float32", "filters": 256, "kernel_size": [1, 1], "strides": [1, 1], "padding": "same", "data_format": "channels_last", "dilation_rate": [1, 1], "groups": 1, "activation": "linear", "use_bias": false, "kernel_initializer": {"class_name": "VarianceScaling", "config": {"scale": 1.0, "mode": "fan_avg", "distribution": "uniform", "seed": null}}, "bias_initializer": {"class_name": "Zeros", "config": {}}, "kernel_regularizer": null, "bias_regularizer": null, "activity_regularizer": null, "kernel_constraint": null, "bias_constraint": null}, "name": "conv_pw_13", "inbound_nodes": [[["conv_dw_13_relu", 0, 0, {}]]]}, {"class_name": "BatchNormalization", "config": {"name": "conv_pw_13_bn", "trainable": true, "dtype": "float32", "axis": [3], "momentum": 0.99, "epsilon": 0.001, "center": true, "scale": true, "beta_initializer": {"class_name": "Zeros", "config": {}}, "gamma_initializer": {"class_name": "Ones", "config": {}}, "moving_mean_initializer": {"class_name": "Zeros", "config": {}}, "moving_variance_initializer": {"class_name": "Ones", "config": {}}, "beta_regularizer": null, "gamma_regularizer": null, "beta_constraint": null, "gamma_constraint": null}, "name": "conv_pw_13_bn", "inbound_nodes": [[["conv_pw_13", 0, 0, {}]]]}, {"class_name": "ReLU", "config": {"name": "conv_pw_13_relu", "trainable": true, "dtype": "float32", "max_value": 6.0, "negative_slope": 0.0, "threshold": 0.0}, "name": "conv_pw_13_relu", "inbound_nodes": [[["conv_pw_13_bn", 0, 0, {}]]]}, {"class_name": "GlobalAveragePooling2D", "config": {"name": "global_average_pooling2d_1", "trainable": true, "dtype": "float32", "data_format": "channels_last", "keepdims": false}, "name": "global_average_pooling2d_1", "inbound_nodes": [[["conv_pw_13_relu", 0, 0, {}]]]}, {"class_name": "Reshape", "config": {"name": "reshape_1", "trainable": true, "dtype": "float32", "target_shape": [1, 1, 256]}, "name": "reshape_1", "inbound_nodes": [[["global_average_pooling2d_1", 0, 0, {}]]]}, {"class_name": "Dropout", "config": {"name": "dropout", "trainable": true, "dtype": "float32", "rate": 0.001, "noise_shape": null, "seed": null}, "name": "dropout", "inbound_nodes": [[["reshape_1", 0, 0, {}]]]}, {"class_name": "Conv2D", "config": {"name": "conv_preds", "trainable": true, "dtype": "float32", "filters": 1000, "kernel_size": [1, 1], "strides": [1, 1], "padding": "same", "data_format": "channels_last", "dilation_rate": [1, 1], "groups": 1, "activation": "linear", "use_bias": true, "kernel_initializer": {"class_name": "VarianceScaling", "config": {"scale": 1.0, "mode": "fan_avg", "distribution": "uniform", "seed": null}}, "bias_initializer": {"class_name": "Zeros", "config": {}}, "kernel_regularizer": null, "bias_regularizer": null, "activity_regularizer": null, "kernel_constraint": null, "bias_constraint": null}, "name": "conv_preds", "inbound_nodes": [[["dropout", 0, 0, {}]]]}, {"class_name": "Reshape", "config": {"name": "reshape_2", "trainable": true, "dtype": "float32", "target_shape": [1000]}, "name": "reshape_2", "inbound_nodes": [[["conv_preds", 0, 0, {}]]]}, {"class_name": "Activation", "config": {"name": "act_softmax", "trainable": true, "dtype": "float32", "activation": "softmax"}, "name": "act_softmax", "inbound_nodes": [[["reshape_2", 0, 0, {}]]]}], "input_layers": [["input_1", 0, 0]], "output_layers": [["act_softmax", 0, 0]]}}}, "weightsManifest": [{"paths": ["group1-shard1of1.bin"], "weights": [{"name": "conv1/kernel", "shape": [3, 3, 3, 8], "dtype": "float32", "quantization": {"dtype": "uint16", "min": -1.1560007097374214, "scale": 3.453325495854881e-05, "original_dtype": "float32"}}, {"name": "conv1_bn/gamma", "shape": [8], "dtype": "float32", "quantization": {"dtype": "uint16", "min": -1.1852174875910317, "scale": 0.0002176707966191059, "original_dtype": "float32"}}, {"name": "conv1_bn/beta", "shape": [8], "dtype": "float32", "quantization": {"dtype": "uint16", "min": -0.3890935723283357, "scale": 7.409894731067143e-05, "original_dtype": "float32"}}, {"name": "conv1_bn/moving_mean", "shape": [8], "dtype": "float32", "quantization": {"dtype": "uint16", "min": -0.2786656440318454, "scale": 1.5823385613073954e-05, "original_dtype": "float32"}}, {"name": "conv1_bn/moving_variance", "shape": [8], "dtype": "float32", "quantization": {"dtype": "uint16", "min": 1.914448628579568e-26, "scale": 6.902083803425576e-05, "original_dtype": "float32"}}, {"name": "conv_dw_1/depthwise_kernel", "shape": [3, 3, 8, 1], "dtype": "float32", "quantization": {"dtype": "uint16", "min": -23.062943300375395, "scale": 0.0005220577065073544, "original_dtype": "float32"}}, {"name": "conv_dw_10/depthwise_kernel", "shape": [3, 3, 128, 1], "dtype": "float32", "quantization": {"dtype": "uint16", "min": -7.491886599796755, "scale": 0.0002519721050616068, "original_dtype": "float32"}}, {"name": "conv_dw_10_bn/gamma", "shape": [128], "dtype": "float32", "quantization": {"dtype": "uint16", "min": 0.3799726068973541, "scale": 2.9000679251712385e-05, "original_dtype": "float32"}}, {"name": "conv_dw_10_bn/beta", "shape": [128], "dtype": "float32", "quantization": {"dtype": "uint16", "min": -3.8696265128963625, "scale": 0.0001458310349687719, "original_dtype": "float32"}}, {"name": "conv_dw_10_bn/moving_mean", "shape": [128], "dtype": "float32", "quantization": {"dtype": "uint16", "min": -31.613831099014472, "scale": 0.0008768953483583289, "original_dtype": "float32"}}, {"name": "conv_dw_10_bn/moving_variance", "shape": [128], "dtype": "float32", "quantization": {"dtype": "uint16", "min": 0.5032681822776794, "scale": 0.0029481928863505018, "original_dtype": "float32"}}, {"name": "conv_dw_11/depthwise_kernel", "shape": [3, 3, 128, 1], "dtype": "float32", "quantization": {"dtype": "uint16", "min": -6.160813986552046, "scale": 0.00019045424714208133, "original_dtype": "float32"}}, {"name": "conv_dw_11_bn/gamma", "shape": [128], "dtype": "float32", "quantization": {"dtype": "uint16", "min": 0.46531087160110474, "scale": 2.824931375001928e-05, "original_dtype": "float32"}}, {"name": "conv_dw_11_bn/beta", "shape": [128], "dtype": "float32", "quantization": {"dtype": "uint16", "min": -3.1644183401094836, "scale": 0.0001359928806613728, "original_dtype": "float32"}}, {"name": "conv_dw_11_bn/moving_mean", "shape": [128], "dtype": "float32", "quantization": {"dtype": "uint16", "min": -38.1821633761304, "scale": 0.0008765217367858956, "original_dtype": "float32"}}, {"name": "conv_dw_11_bn/moving_variance", "shape": [128], "dtype": "float32", "quantization": {"dtype": "uint16", "min": 0.7519780397415161, "scale": 0.005372511330081623, "original_dtype": "float32"}}, {"name": "conv_dw_12/depthwise_kernel", "shape": [3, 3, 128, 1], "dtype": "float32", "quantization": {"dtype": "uint16", "min": -3.1344505999648, "scale": 0.0001033483003054766, "original_dtype": "float32"}}, {"name": "conv_dw_12_bn/gamma", "shape": [128], "dtype": "float32", "quantization": {"dtype": "uint16", "min": 0.4517863094806671, "scale": 4.525593137126261e-05, "original_dtype": "float32"}}, {"name": "conv_dw_12_bn/beta", "shape": [128], "dtype": "float32", "quantization": {"dtype": "uint16", "min": -3.245864068524119, "scale": 0.00013813951008742048, "original_dtype": "float32"}}, {"name": "conv_dw_12_bn/moving_mean", "shape": [128], "dtype": "float32", "quantization": {"dtype": "uint16", "min": -41.433909030319704, "scale": 0.0011946116085318793, "original_dtype": "float32"}}, {"name": "conv_dw_12_bn/moving_variance", "shape": [128], "dtype": "float32", "quantization": {"dtype": "uint16", "min": 1.3790593147277832, "scale": 0.0013779649220079019, "original_dtype": "float32"}}, {"name": "conv_dw_13/depthwise_kernel", "shape": [3, 3, 256, 1], "dtype": "float32", "quantization": {"dtype": "uint16", "min": -3.501135287445288, "scale": 0.00010160882512828419, "original_dtype": "float32"}}, {"name": "conv_dw_13_bn/gamma", "shape": [256], "dtype": "float32", "quantization": {"dtype": "uint16", "min": 0.5337013602256775, "scale": 0.00010199519619658308, "original_dtype": "float32"}}, {"name": "conv_dw_13_bn/beta", "shape": [256], "dtype": "float32", "quantization": {"dtype": "uint16", "min": -5.408025736513005, "scale": 0.00017004231343582582, "original_dtype": "float32"}}, {"name": "conv_dw_13_bn/moving_mean", "shape": [256], "dtype": "float32", "quantization": {"dtype": "uint16", "min": -23.265269962266263, "scale": 0.0005314738997662196, "original_dtype": "float32"}}, {"name": "conv_dw_13_bn/moving_variance", "shape": [256], "dtype": "float32", "quantization": {"dtype": "uint16", "min": 3.913335775243518e-36, "scale": 0.001362163170875415, "original_dtype": "float32"}}, {"name": "conv_dw_1_bn/gamma", "shape": [8], "dtype": "float32", "quantization": {"dtype": "uint16", "min": -0.5803314230703439, "scale": 1.87518231572426e-05, "original_dtype": "float32"}}, {"name": "conv_dw_1_bn/beta", "shape": [8], "dtype": "float32", "quantization": {"dtype": "uint16", "min": -1.176912923447462, "scale": 0.00010400432338701503, "original_dtype": "float32"}}, {"name": "conv_dw_1_bn/moving_mean", "shape": [8], "dtype": "float32", "quantization": {"dtype": "uint16", "min": -66.24075192775771, "scale": 0.0017474543468952361, "original_dtype": "float32"}}, {"name": "conv_dw_1_bn/moving_variance", "shape": [8], "dtype": "float32", "quantization": {"dtype": "uint16", "min": 3.914707209234971e-36, "scale": 0.03388856279683566, "original_dtype": "float32"}}, {"name": "conv_dw_2/depthwise_kernel", "shape": [3, 3, 16, 1], "dtype": "float32", "quantization": {"dtype": "uint16", "min": -14.364374174154568, "scale": 0.000424541870079934, "original_dtype": "float32"}}, {"name": "conv_dw_2_bn/gamma", "shape": [16], "dtype": "float32", "quantization": {"dtype": "uint16", "min": -0.4793074977628024, "scale": 3.6174150774551125e-05, "original_dtype": "float32"}}, {"name": "conv_dw_2_bn/beta", "shape": [16], "dtype": "float32", "quantization": {"dtype": "uint16", "min": -1.4326921575500715, "scale": 0.00011601685622723067, "original_dtype": "float32"}}, {"name": "conv_dw_2_bn/moving_mean", "shape": [16], "dtype": "float32", "quantization": {"dtype": "uint16", "min": -40.18310519132805, "scale": 0.0014589755715390333, "original_dtype": "float32"}}, {"name": "conv_dw_2_bn/moving_variance", "shape": [16], "dtype": "float32", "quantization": {"dtype": "uint16", "min": 3.910664653741985e-36, "scale": 0.003919616079879788, "original_dtype": "float32"}}, {"name": "conv_dw_3/depthwise_kernel", "shape": [3, 3, 32, 1], "dtype": "float32", "quantization": {"dtype": "uint16", "min": -23.918085936295082, "scale": 0.000763887641285653, "original_dtype": "float32"}}, {"name": "conv_dw_3_bn/gamma", "shape": [32], "dtype": "float32", "quantization": {"dtype": "uint16", "min": 0.5965616106987, "scale": 0.00017130815019649018, "original_dtype": "float32"}}, {"name": "conv_dw_3_bn/beta", "shape": [32], "dtype": "float32", "quantization": {"dtype": "uint16", "min": -1.0835284525845883, "scale": 0.00010716333227025896, "original_dtype": "float32"}}, {"name": "conv_dw_3_bn/moving_mean", "shape": [32], "dtype": "float32", "quantization": {"dtype": "uint16", "min": -36.21582574213525, "scale": 0.0008058347590702517, "original_dtype": "float32"}}, {"name": "conv_dw_3_bn/moving_variance", "shape": [32], "dtype": "float32", "quantization": {"dtype": "uint16", "min": 3.907931830266471e-36, "scale": 0.007904084865494106, "original_dtype": "float32"}}, {"name": "conv_dw_4/depthwise_kernel", "shape": [3, 3, 32, 1], "dtype": "float32", "quantization": {"dtype": "uint16", "min": -4.896787550728226, "scale": 0.00014585492957817968, "original_dtype": "float32"}}, {"name": "conv_dw_4_bn/gamma", "shape": [32], "dtype": "float32", "quantization": {"dtype": "uint16", "min": 0.4783949553966522, "scale": 3.00091705597301e-05, "original_dtype": "float32"}}, {"name": "conv_dw_4_bn/beta", "shape": [32], "dtype": "float32", "quantization": {"dtype": "uint16", "min": -0.4827670617517221, "scale": 0.00010210809258708167, "original_dtype": "float32"}}, {"name": "conv_dw_4_bn/moving_mean", "shape": [32], "dtype": "float32", "quantization": {"dtype": "uint16", "min": -94.9409893699175, "scale": 0.0030469844786391574, "original_dtype": "float32"}}, {"name": "conv_dw_4_bn/moving_variance", "shape": [32], "dtype": "float32", "quantization": {"dtype": "uint16", "min": 0.4741990268230438, "scale": 0.0047150924571038675, "original_dtype": "float32"}}, {"name": "conv_dw_5/depthwise_kernel", "shape": [3, 3, 64, 1], "dtype": "float32", "quantization": {"dtype": "uint16", "min": -11.394310751417512, "scale": 0.00042943921725464564, "original_dtype": "float32"}}, {"name": "conv_dw_5_bn/gamma", "shape": [64], "dtype": "float32", "quantization": {"dtype": "uint16", "min": -0.8782700861019666, "scale": 6.719740521055597e-05, "original_dtype": "float32"}}, {"name": "conv_dw_5_bn/beta", "shape": [64], "dtype": "float32", "quantization": {"dtype": "uint16", "min": -2.181153472180933, "scale": 0.00011772201382669112, "original_dtype": "float32"}}, {"name": "conv_dw_5_bn/moving_mean", "shape": [64], "dtype": "float32", "quantization": {"dtype": "uint16", "min": -40.14634869273471, "scale": 0.0011996876850566194, "original_dtype": "float32"}}, {"name": "conv_dw_5_bn/moving_variance", "shape": [64], "dtype": "float32", "quantization": {"dtype": "uint16", "min": 0.9459165930747986, "scale": 0.002497247669328821, "original_dtype": "float32"}}, {"name": "conv_dw_6/depthwise_kernel", "shape": [3, 3, 64, 1], "dtype": "float32", "quantization": {"dtype": "uint16", "min": -3.9794719641401652, "scale": 0.00012834108311478586, "original_dtype": "float32"}}, {"name": "conv_dw_6_bn/gamma", "shape": [64], "dtype": "float32", "quantization": {"dtype": "uint16", "min": 0.4971899688243866, "scale": 3.8824149543091065e-05, "original_dtype": "float32"}}, {"name": "conv_dw_6_bn/beta", "shape": [64], "dtype": "float32", "quantization": {"dtype": "uint16", "min": -3.0861898505661336, "scale": 0.00012040848388927993, "original_dtype": "float32"}}, {"name": "conv_dw_6_bn/moving_mean", "shape": [64], "dtype": "float32", "quantization": {"dtype": "uint16", "min": -70.97498654404612, "scale": 0.002048221936512932, "original_dtype": "float32"}}, {"name": "conv_dw_6_bn/moving_variance", "shape": [64], "dtype": "float32", "quantization": {"dtype": "uint16", "min": 3.911813314908774e-36, "scale": 0.005732104102888724, "original_dtype": "float32"}}, {"name": "conv_dw_7/depthwise_kernel", "shape": [3, 3, 128, 1], "dtype": "float32", "quantization": {"dtype": "uint16", "min": -8.135778488679565, "scale": 0.0002947745829231726, "original_dtype": "float32"}}, {"name": "conv_dw_7_bn/gamma", "shape": [128], "dtype": "float32", "quantization": {"dtype": "uint16", "min": 0.5745406746864319, "scale": 5.8918947157419967e-05, "original_dtype": "float32"}}, {"name": "conv_dw_7_bn/beta", "shape": [128], "dtype": "float32", "quantization": {"dtype": "uint16", "min": -2.806846613704617, "scale": 0.00010870823445796348, "original_dtype": "float32"}}, {"name": "conv_dw_7_bn/moving_mean", "shape": [128], "dtype": "float32", "quantization": {"dtype": "uint16", "min": -38.652277930101015, "scale": 0.0009390738078255835, "original_dtype": "float32"}}, {"name": "conv_dw_7_bn/moving_variance", "shape": [128], "dtype": "float32", "quantization": {"dtype": "uint16", "min": 0.863631546497345, "scale": 0.002581732170509239, "original_dtype": "float32"}}, {"name": "conv_dw_8/depthwise_kernel", "shape": [3, 3, 128, 1], "dtype": "float32", "quantization": {"dtype": "uint16", "min": -7.21243124418549, "scale": 0.00023941680478624033, "original_dtype": "float32"}}, {"name": "conv_dw_8_bn/gamma", "shape": [128], "dtype": "float32", "quantization": {"dtype": "uint16", "min": 0.6281939148902893, "scale": 3.163752789045168e-05, "original_dtype": "float32"}}, {"name": "conv_dw_8_bn/beta", "shape": [128], "dtype": "float32", "quantization": {"dtype": "uint16", "min": -1.912799321496442, "scale": 9.81426024369647e-05, "original_dtype": "float32"}}, {"name": "conv_dw_8_bn/moving_mean", "shape": [128], "dtype": "float32", "quantization": {"dtype": "uint16", "min": -33.73238731483814, "scale": 0.001048175604836186, "original_dtype": "float32"}}, {"name": "conv_dw_8_bn/moving_variance", "shape": [128], "dtype": "float32", "quantization": {"dtype": "uint16", "min": 5.869264602661133, "scale": 0.0012188091061249326, "original_dtype": "float32"}}, {"name": "conv_dw_9/depthwise_kernel", "shape": [3, 3, 128, 1], "dtype": "float32", "quantization": {"dtype": "uint16", "min": -6.765070812294901, "scale": 0.0002618872256230606, "original_dtype": "float32"}}, {"name": "conv_dw_9_bn/gamma", "shape": [128], "dtype": "float32", "quantization": {"dtype": "uint16", "min": 0.43377360701560974, "scale": 2.250267792286476e-05, "original_dtype": "float32"}}, {"name": "conv_dw_9_bn/beta", "shape": [128], "dtype": "float32", "quantization": {"dtype": "uint16", "min": -1.4725682234376647, "scale": 9.256777869233497e-05, "original_dtype": "float32"}}, {"name": "conv_dw_9_bn/moving_mean", "shape": [128], "dtype": "float32", "quantization": {"dtype": "uint16", "min": -36.380552349991355, "scale": 0.0008363537633047048, "original_dtype": "float32"}}, {"name": "conv_dw_9_bn/moving_variance", "shape": [128], "dtype": "float32", "quantization": {"dtype": "uint16", "min": 0.28509247303009033, "scale": 0.0020064098461911035, "original_dtype": "float32"}}, {"name": "conv_preds/kernel", "shape": [1, 1, 256, 1000], "dtype": "float32", "quantization": {"dtype": "uint16", "min": -0.6954687742844248, "scale": 2.6643250748359375e-05, "original_dtype": "float32"}}, {"name": "conv_preds/bias", "shape": [1000], "dtype": "float32", "quantization": {"dtype": "uint16", "min": -3.365656927025381, "scale": 0.00010150973962556946, "original_dtype": "float32"}}, {"name": "conv_pw_1/kernel", "shape": [1, 1, 8, 16], "dtype": "float32", "quantization": {"dtype": "uint16", "min": -1.565994511627811, "scale": 4.803222131790973e-05, "original_dtype": "float32"}}, {"name": "conv_pw_10/kernel", "shape": [1, 1, 128, 128], "dtype": "float32", "quantization": {"dtype": "uint16", "min": -0.8784959534754003, "scale": 2.886181593650701e-05, "original_dtype": "float32"}}, {"name": "conv_pw_10_bn/gamma", "shape": [128], "dtype": "float32", "quantization": {"dtype": "uint16", "min": 0.4703107178211212, "scale": 4.724828631397497e-05, "original_dtype": "float32"}}, {"name": "conv_pw_10_bn/beta", "shape": [128], "dtype": "float32", "quantization": {"dtype": "uint16", "min": -1.8947430650602355, "scale": 9.905599461837283e-05, "original_dtype": "float32"}}, {"name": "conv_pw_10_bn/moving_mean", "shape": [128], "dtype": "float32", "quantization": {"dtype": "uint16", "min": -5.363425485422221, "scale": 0.00020179184639836792, "original_dtype": "float32"}}, {"name": "conv_pw_10_bn/moving_variance", "shape": [128], "dtype": "float32", "quantization": {"dtype": "uint16", "min": 0.37788519263267517, "scale": 3.3484699342837824e-05, "original_dtype": "float32"}}, {"name": "conv_pw_11/kernel", "shape": [1, 1, 128, 128], "dtype": "float32", "quantization": {"dtype": "uint16", "min": -0.8195126447396028, "scale": 2.70163066110504e-05, "original_dtype": "float32"}}, {"name": "conv_pw_11_bn/gamma", "shape": [128], "dtype": "float32", "quantization": {"dtype": "uint16", "min": 0.1314631700515747, "scale": 3.230879888332999e-05, "original_dtype": "float32"}}, {"name": "conv_pw_11_bn/beta", "shape": [128], "dtype": "float32", "quantization": {"dtype": "uint16", "min": -2.254320782386184, "scale": 0.00012357859787228288, "original_dtype": "float32"}}, {"name": "conv_pw_11_bn/moving_mean", "shape": [128], "dtype": "float32", "quantization": {"dtype": "uint16", "min": -8.488229974562037, "scale": 0.00023245871489968608, "original_dtype": "float32"}}, {"name": "conv_pw_11_bn/moving_variance", "shape": [128], "dtype": "float32", "quantization": {"dtype": "uint16", "min": 0.3654242157936096, "scale": 3.109369269222819e-05, "original_dtype": "float32"}}, {"name": "conv_pw_12/kernel", "shape": [1, 1, 128, 256], "dtype": "float32", "quantization": {"dtype": "uint16", "min": -0.8946372857235331, "scale": 2.851615356273015e-05, "original_dtype": "float32"}}, {"name": "conv_pw_12_bn/gamma", "shape": [256], "dtype": "float32", "quantization": {"dtype": "uint16", "min": 0.230918750166893, "scale": 4.339655999816454e-05, "original_dtype": "float32"}}, {"name": "conv_pw_12_bn/beta", "shape": [256], "dtype": "float32", "quantization": {"dtype": "uint16", "min": -3.8865074498380374, "scale": 0.00012484765338381104, "original_dtype": "float32"}}, {"name": "conv_pw_12_bn/moving_mean", "shape": [256], "dtype": "float32", "quantization": {"dtype": "uint16", "min": -5.999316444514845, "scale": 0.000194966573868735, "original_dtype": "float32"}}, {"name": "conv_pw_12_bn/moving_variance", "shape": [256], "dtype": "float32", "quantization": {"dtype": "uint16", "min": 6.296164632086342e-25, "scale": 7.017344734329849e-05, "original_dtype": "float32"}}, {"name": "conv_pw_13/kernel", "shape": [1, 1, 256, 256], "dtype": "float32", "quantization": {"dtype": "uint16", "min": -1.171244922396956, "scale": 4.0661167241692624e-05, "original_dtype": "float32"}}, {"name": "conv_pw_13_bn/gamma", "shape": [256], "dtype": "float32", "quantization": {"dtype": "uint16", "min": 5.090339183807373, "scale": 9.918896113470125e-05, "original_dtype": "float32"}}, {"name": "conv_pw_13_bn/beta", "shape": [256], "dtype": "float32", "quantization": {"dtype": "uint16", "min": -7.874378681182861, "scale": 0.00011047451285300179, "original_dtype": "float32"}}, {"name": "conv_pw_13_bn/moving_mean", "shape": [256], "dtype": "float32", "quantization": {"dtype": "uint16", "min": -6.148704073122967, "scale": 0.00017521668964786752, "original_dtype": "float32"}}, {"name": "conv_pw_13_bn/moving_variance", "shape": [256], "dtype": "float32", "quantization": {"dtype": "uint16", "min": 0.49108728766441345, "scale": 1.7638145817711322e-05, "original_dtype": "float32"}}, {"name": "conv_pw_1_bn/gamma", "shape": [16], "dtype": "float32", "quantization": {"dtype": "uint16", "min": -0.25304721268889396, "scale": 4.805302177912912e-05, "original_dtype": "float32"}}, {"name": "conv_pw_1_bn/beta", "shape": [16], "dtype": "float32", "quantization": {"dtype": "uint16", "min": -4.482687603284085, "scale": 0.00012493555193099457, "original_dtype": "float32"}}, {"name": "conv_pw_1_bn/moving_mean", "shape": [16], "dtype": "float32", "quantization": {"dtype": "uint16", "min": -5.497182932727314, "scale": 0.0001649319811799374, "original_dtype": "float32"}}, {"name": "conv_pw_1_bn/moving_variance", "shape": [16], "dtype": "float32", "quantization": {"dtype": "uint16", "min": 9.525674156842557e-26, "scale": 2.2695080370127022e-05, "original_dtype": "float32"}}, {"name": "conv_pw_2/kernel", "shape": [1, 1, 16, 32], "dtype": "float32", "quantization": {"dtype": "uint16", "min": -1.4783159814565234, "scale": 5.99406390729645e-05, "original_dtype": "float32"}}, {"name": "conv_pw_2_bn/gamma", "shape": [32], "dtype": "float32", "quantization": {"dtype": "uint16", "min": -0.3238097788499569, "scale": 9.280876435940294e-05, "original_dtype": "float32"}}, {"name": "conv_pw_2_bn/beta", "shape": [32], "dtype": "float32", "quantization": {"dtype": "uint16", "min": -1.8992598331246522, "scale": 0.00011289661969474245, "original_dtype": "float32"}}, {"name": "conv_pw_2_bn/moving_mean", "shape": [32], "dtype": "float32", "quantization": {"dtype": "uint16", "min": -5.045339720005609, "scale": 0.00023097142098542434, "original_dtype": "float32"}}, {"name": "conv_pw_2_bn/moving_variance", "shape": [32], "dtype": "float32", "quantization": {"dtype": "uint16", "min": 4.4480452156807446e-26, "scale": 5.566456265695819e-05, "original_dtype": "float32"}}, {"name": "conv_pw_3/kernel", "shape": [1, 1, 32, 32], "dtype": "float32", "quantization": {"dtype": "uint16", "min": -1.6699749119741798, "scale": 5.5569509915286166e-05, "original_dtype": "float32"}}, {"name": "conv_pw_3_bn/gamma", "shape": [32], "dtype": "float32", "quantization": {"dtype": "uint16", "min": 0.10800550878047943, "scale": 7.558527100665569e-05, "original_dtype": "float32"}}, {"name": "conv_pw_3_bn/beta", "shape": [32], "dtype": "float32", "quantization": {"dtype": "uint16", "min": -2.488942283415145, "scale": 0.00013434135496384438, "original_dtype": "float32"}}, {"name": "conv_pw_3_bn/moving_mean", "shape": [32], "dtype": "float32", "quantization": {"dtype": "uint16", "min": -8.627447322043054, "scale": 0.00027202192338387734, "original_dtype": "float32"}}, {"name": "conv_pw_3_bn/moving_variance", "shape": [32], "dtype": "float32", "quantization": {"dtype": "uint16", "min": 0.8258686065673828, "scale": 9.092336171386606e-05, "original_dtype": "float32"}}, {"name": "conv_pw_4/kernel", "shape": [1, 1, 32, 64], "dtype": "float32", "quantization": {"dtype": "uint16", "min": -1.4215842622217947, "scale": 4.7346686501974845e-05, "original_dtype": "float32"}}, {"name": "conv_pw_4_bn/gamma", "shape": [64], "dtype": "float32", "quantization": {"dtype": "uint16", "min": 0.38359153270721436, "scale": 8.538406337436226e-05, "original_dtype": "float32"}}, {"name": "conv_pw_4_bn/beta", "shape": [64], "dtype": "float32", "quantization": {"dtype": "uint16", "min": -3.324172340643945, "scale": 0.00020378692622878526, "original_dtype": "float32"}}, {"name": "conv_pw_4_bn/moving_mean", "shape": [64], "dtype": "float32", "quantization": {"dtype": "uint16", "min": -5.097975882711168, "scale": 0.00018262496445320322, "original_dtype": "float32"}}, {"name": "conv_pw_4_bn/moving_variance", "shape": [64], "dtype": "float32", "quantization": {"dtype": "uint16", "min": 0.23754963278770447, "scale": 6.270629686431407e-05, "original_dtype": "float32"}}, {"name": "conv_pw_5/kernel", "shape": [1, 1, 64, 64], "dtype": "float32", "quantization": {"dtype": "uint16", "min": -1.4544459577100433, "scale": 4.452612758947017e-05, "original_dtype": "float32"}}, {"name": "conv_pw_5_bn/gamma", "shape": [64], "dtype": "float32", "quantization": {"dtype": "uint16", "min": 0.12488387525081635, "scale": 8.575246005197625e-05, "original_dtype": "float32"}}, {"name": "conv_pw_5_bn/beta", "shape": [64], "dtype": "float32", "quantization": {"dtype": "uint16", "min": -2.938850562789124, "scale": 0.00015927002833238262, "original_dtype": "float32"}}, {"name": "conv_pw_5_bn/moving_mean", "shape": [64], "dtype": "float32", "quantization": {"dtype": "uint16", "min": -7.109050780127739, "scale": 0.0002289401900079782, "original_dtype": "float32"}}, {"name": "conv_pw_5_bn/moving_variance", "shape": [64], "dtype": "float32", "quantization": {"dtype": "uint16", "min": 4.145680685536562e-26, "scale": 8.072582054822134e-05, "original_dtype": "float32"}}, {"name": "conv_pw_6/kernel", "shape": [1, 1, 64, 128], "dtype": "float32", "quantization": {"dtype": "uint16", "min": -1.110041167933053, "scale": 3.60239231496415e-05, "original_dtype": "float32"}}, {"name": "conv_pw_6_bn/gamma", "shape": [128], "dtype": "float32", "quantization": {"dtype": "uint16", "min": 0.18216608464717865, "scale": 3.391680482269343e-05, "original_dtype": "float32"}}, {"name": "conv_pw_6_bn/beta", "shape": [128], "dtype": "float32", "quantization": {"dtype": "uint16", "min": -1.3475922454655864, "scale": 8.46903120579177e-05, "original_dtype": "float32"}}, {"name": "conv_pw_6_bn/moving_mean", "shape": [128], "dtype": "float32", "quantization": {"dtype": "uint16", "min": -8.411594875498968, "scale": 0.0002652914143721881, "original_dtype": "float32"}}, {"name": "conv_pw_6_bn/moving_variance", "shape": [128], "dtype": "float32", "quantization": {"dtype": "uint16", "min": 0.3528721332550049, "scale": 6.867026613316529e-05, "original_dtype": "float32"}}, {"name": "conv_pw_7/kernel", "shape": [1, 1, 128, 128], "dtype": "float32", "quantization": {"dtype": "uint16", "min": -1.100342973742722, "scale": 3.297204164397465e-05, "original_dtype": "float32"}}, {"name": "conv_pw_7_bn/gamma", "shape": [128], "dtype": "float32", "quantization": {"dtype": "uint16", "min": 0.4854999780654907, "scale": 4.4484925031789316e-05, "original_dtype": "float32"}}, {"name": "conv_pw_7_bn/beta", "shape": [128], "dtype": "float32", "quantization": {"dtype": "uint16", "min": -1.18780954958982, "scale": 9.89017110399517e-05, "original_dtype": "float32"}}, {"name": "conv_pw_7_bn/moving_mean", "shape": [128], "dtype": "float32", "quantization": {"dtype": "uint16", "min": -6.5226843292147265, "scale": 0.00019931808492634764, "original_dtype": "float32"}}, {"name": "conv_pw_7_bn/moving_variance", "shape": [128], "dtype": "float32", "quantization": {"dtype": "uint16", "min": 1.2065914869308472, "scale": 0.0002857999760889758, "original_dtype": "float32"}}, {"name": "conv_pw_8/kernel", "shape": [1, 1, 128, 128], "dtype": "float32", "quantization": {"dtype": "uint16", "min": -1.1912303118863277, "scale": 3.665888019345523e-05, "original_dtype": "float32"}}, {"name": "conv_pw_8_bn/gamma", "shape": [128], "dtype": "float32", "quantization": {"dtype": "uint16", "min": 0.10306863486766815, "scale": 3.597948205928522e-05, "original_dtype": "float32"}}, {"name": "conv_pw_8_bn/beta", "shape": [128], "dtype": "float32", "quantization": {"dtype": "uint16", "min": -1.2971138371895206, "scale": 8.14258529309178e-05, "original_dtype": "float32"}}, {"name": "conv_pw_8_bn/moving_mean", "shape": [128], "dtype": "float32", "quantization": {"dtype": "uint16", "min": -6.082212765873311, "scale": 0.0002436686337035099, "original_dtype": "float32"}}, {"name": "conv_pw_8_bn/moving_variance", "shape": [128], "dtype": "float32", "quantization": {"dtype": "uint16", "min": 0.57709801197052, "scale": 5.4391470746353e-05, "original_dtype": "float32"}}, {"name": "conv_pw_9/kernel", "shape": [1, 1, 128, 128], "dtype": "float32", "quantization": {"dtype": "uint16", "min": -0.7251312479161921, "scale": 2.7767911768254274e-05, "original_dtype": "float32"}}, {"name": "conv_pw_9_bn/gamma", "shape": [128], "dtype": "float32", "quantization": {"dtype": "uint16", "min": 0.3712165951728821, "scale": 2.7374690281332534e-05, "original_dtype": "float32"}}, {"name": "conv_pw_9_bn/beta", "shape": [128], "dtype": "float32", "quantization": {"dtype": "uint16", "min": -2.0278870070490855, "scale": 9.604466264322656e-05, "original_dtype": "float32"}}, {"name": "conv_pw_9_bn/moving_mean", "shape": [128], "dtype": "float32", "quantization": {"dtype": "uint16", "min": -5.253364336818963, "scale": 0.00021091072494053973, "original_dtype": "float32"}}, {"name": "conv_pw_9_bn/moving_variance", "shape": [128], "dtype": "float32", "quantization": {"dtype": "uint16", "min": 0.3990635275840759, "scale": 3.8078989618437744e-05, "original_dtype": "float32"}}]}]}